ltn_model.pt (torch, 4721 bytes, 3 tensors)

fc.0.weight f4 [32, 15]
-0.17200795 -0.10895785 0.10037853 -0.22021233 0.25173354 -0.1892641 0.15405723 -0.25515327
0.15992822 0.13219173 -0.18625043 0.03473151 -0.12500073 -0.013199354 -0.14852962 0.24186279
0.53341454 0.21716128 0.40031877 0.59314054 0.25382733 0.5601027 0.42040682 0.39304602
0.351196 0.4939831 0.35621825 0.22951773 0.24108332 0.19853066 0.062486805 -0.08756946
0.20532732 0.101644285 -0.22204135 -0.055120267 -0.22441126 -0.0868245 -0.13702852 0.1311587
-0.15060732 -0.23812322 -0.21032856 -0.20287159 0.21268207 -0.16838448 0.013029049 -0.061399817
0.17333567 -0.24017143 0.01386715 -0.14401695 0.0138026355 -0.24788295 -0.21208015 -0.23405166
-0.10171671 -0.12030956 0.1472208 0.098208405 -0.06996877 0.15241295 0.053102348 0.002361296
0.12260591 0.049805965 -0.24975115 -0.22652121 -0.23905355 0.068698145 0.13225067 -0.15377006
-0.06888529 -0.1398977 -0.1637955 0.5853511 0.33148867 0.5986909 0.1295346 0.3103366
0.46885106 0.1435917 0.49245593 0.20744765 0.6290228 0.23566645 0.48859808 0.31482273
0.14571252 0.64369476 0.574321 0.14857195 0.4709745 0.56981647 0.43312648 0.45935825
0.36364883 0.5721 0.11185605 0.541568 0.5496719 0.18544267 0.5489579 0.35067624
0.5950654 -0.15095845 0.14575757 -0.0917503 0.19006453 -0.22384454 -0.14852135 0.1361957
-0.1816737 -0.13433664 -0.17277242 0.042934272 -0.01232007 -0.08046849 -0.19627304 -0.14535514
-0.16779344 0.15648896 -0.18015712 -0.061210524 -0.047542673 -0.02377686 -0.21096608 0.19757687
0.14369583 -0.10993145 0.22675006 0.22915402 -0.24866934 0.25170982 -0.24982917 -0.106299594
-0.0020156398 -0.017388534 0.19371165 0.10977225 -0.06470371 0.1346217 0.21344738 -0.19506088
-0.20226069 0.05484962 0.005764854 0.08269907 0.044094913 -0.14654757 0.02934217 -0.24490723
-0.12464916 -0.17492537 -0.022415722 -0.15104666 0.09768389 -0.25601646 0.17855492 -0.21683875
-0.255271 -0.17959891 0.07820098 -0.19925211 0.22191735 0.10177196 -0.19271518 -0.04331791
-0.051659644 -0.18338665 0.21120918 -0.1337639 -0.12022867 -0.19297731 0.060338195 -0.24018694
-0.1708327 0.19922097 0.14760272 -0.2560813 -0.20209256 0.20963778 -0.2557408 -0.062730305
-0.118788615 0.034188405 -0.0126506435 -0.13320659 0.086623944 -0.09139729 -0.2289163 0.11626868
-0.20524906 -0.024989428 -0.036317006 -0.08297133 0.14035928 0.051618166 -0.2022298 0.118144296
0.040587395 0.12215332 -0.1323614 -0.22915126 0.22819042 -0.06527896 0.084303334 0.015722366
-0.072682746 -0.1715198 -0.24283972 0.07490728 -0.058304764 -0.20770998 -0.08646078 -0.2445865
-0.057519544 -0.2433269 -0.024769384 0.17037925 -0.18509252 0.1868933 0.0035274466 -0.17114425
0.0495894 -0.24188814 0.12809637 0.099112205 -0.059042282 0.16105574 -0.27091232 0.060488474
-0.14178489 0.11890614 -0.29831675 0.068494745 0.08900665 -0.032104805 0.09309225 -0.07249443
0.061440654 0.36898112 0.364402 0.5529818 0.46110508 0.16368413 0.16582099 0.28601062
0.43040723 0.23803963 0.52125496 0.22644348 0.19304667 0.10123968 0.23082817 0.79430056
00000000: da22 30be 4b25 dfbd 4293 cd3d 577f 61be
00000010: 38e3 803e 73ce 41be 2ec1 1d3e 73a3 82be
00000020: 39c4 233e 455d 073e 6fb8 3ebe a142 0e3d
00000030: 3100 00be 1a42 58bc 2618 18be e1aa 773e
00000040: db8d 083f 875f 5e3e 95f6 cc3e 0fd8 173f
00000050: a8f5 813e e462 0f3f 903f d73e 543d c93e
00000060: f6cf b33e 5aeb fc3e 3d62 b63e b206 6b3e
00000070: 8cde 763e 9f4b 4b3e 2af2 7f3d 9e57 b3bd
00000080: 5341 523e e12a d03d cf5e 63be cac5 61bd
00000090: 11cc 65be 0bd1 b1bd 3451 0cbe 774e 063e
000000a0: ce38 1abe 93d6 73be 5f60 57be 92bd 4fbe
000000b0: 54c9 593e fb6c 2cbe cb77 553c 607e 7bbd
000000c0: e87e 313e 80ef 75be 0b33 633c 2e79 13be
000000d0: 7324 623c 07d5 7dbe 8a2b 59be 3dab 6fbe
000000e0: da50 d0bd dc64 f6bd 0dc1 163e 7d21 c93d
000000f0: c94b 8fbd 2412 1c3e d981 593d f9bf 1a3b
00000100: cf18 fb3d 5701 4c3d c4be 7fbe 2df5 67be
00000110: 74ca 74be 9db1 8c3d b86c 073e e675 1dbe
00000120: bb13 8dbd 5841 0fbe 02ba 27be 92d9 153f
00000130: e2b8 a93e cf43 193f b8a4 043e 70e4 9e3e
00000140: 3f0d f03e b409 133e 2f23 fc3e 286d 543e
00000150: a307 213f 8c52 713e 8729 fa3e 7230 a13e
00000160: aa35 153e 2ec9 243f b306 133f 3f23 183e
00000170: 9223 f13e 7edf 113f c1c2 dd3e 0131 eb3e
00000180: 2e30 ba3e 2575 123f c914 e53d 33a4 0a3f
00000190: 4cb7 0c3f afe4 3d3e 8188 0c3f d68b b33e
000001a0: 3556 183f da94 1abe 7941 153e 95e7 bbbd
000001b0: 47a0 423e 8137 65be fb15 18be e376 0b3e
000001c0: ac08 3abe 8b8f 09be 41eb 30be d9db 2f3d
000001d0: 1eda 49bc aacc a4bd cdfb 48be fad7 14be
000001e0: 0bd2 2bbe a43e 203e 1c7b 38be e3b7 7abd
000001f0: 1bbc 42bd b1c7 c2bc 7e07 58be 9751 4a3e
00000200: 0025 133e bd23 e1bd 2b31 683e 5aa7 6a3e
00000210: 2da3 7ebe 1ce0 803e 38d3 7fbe 9ab3 d9bd
00000220: d318 04bb 6672 8ebc 595c 463e 46d0 e03d
00000230: 6183 84bd 45da 093e f391 5a3e 0abe 47be
00000240: 6d1d 4fbe ffa9 603d 1ae7 bc3b 215e a93d
00000250: de9c 343d 9110 16be fe5e f03c f6c8 7abe
00000260: 0f48 ffbd a31f 33be 2da1 b7bc faab 1abe
00000270: 7e0e c83d 9714 83be 1ad7 363e fa0a 5ebe
00000280: e1b2 82be c7e8 37be d627 a03d bf08 4cbe
00000290: 4d3e 633e d16d d03d 2157 45be 1f6e 31bd
000002a0: 1099 53bd b6c9 3bbe 3847 583e 67f9 08be
000002b0: 733a f6bd d89b 45be 2f25 773d 91f3 75be
000002c0: c4ee 2ebe 9500 4c3e 2b25 173e 171d 83be
000002d0: 5af1 4ebe 49ab 563e 75f0 82be bf78 80bd
000002e0: 7247 f3bd 2409 0c3d a544 4fbc 4f67 08be
000002f0: e567 b13d 812e bbbd 0969 6abe 461e ee3d
00000300: cf2c 52be a1b6 ccbc 24c1 14bd dfec a9bd
00000310: 58ba 0f3e 926d 533d 5415 4fbe a3f5 f13d
00000320: f83e 263d 852b fa3d bf89 07be a1a6 6abe
00000330: c0aa 693e fab0 85bd 3aa7 ac3d 31cc 803c
00000340: b1da 94bd e3a2 2fbe faaa 78be fd68 993d
00000350: fad0 6ebd edb1 54be 5912 b1bd e274 7abe
00000360: 9d99 6bbd b02a 79be 2ae9 cabc e677 2e3e
00000370: e588 3dbe f560 3f3e bc2c 673b 7040 2fbe
00000380: 411e 4b3d 86b1 77be b22b 033e 57fb ca3d
00000390: 52d6 71bd cceb 243e 05b5 8abe c3c2 773d
000003a0: 0f30 11be 1085 f33d f9bc 98be f946 8c3d
000003b0: 1e49 b63d 5480 03bd 26a7 be3d f677 94bd
000003c0: 32a9 7b3d 18eb bc3e e692 ba3e 3790 0d3f
000003d0: f715 ec3e d09c 273e facc 293e fc6f 923e
000003e0: 565e dc3e a9c0 733e f770 053f cde0 673e
000003f0: 07ae 453e c056 cf3d 385e 6c3e 4857 4b3f

fc.0.bias f4 [32]
0.04211424 0.44012594 -0.19465849 0.1380656 0.17339319 0.5618638 0.60724366 0.015010924
-0.24722685 -0.23867661 0.21542719 -0.09612856 0.032453444 0.0069084656 0.22852144 0.0016794534
0.49956566 0.7299481 -0.13976556 -0.23328197 0.005191798 0.101153105 0.19415207 0.0716621
-0.08332183 -0.12746541 -0.037794646 -0.08818755 -0.0609376 -0.09867949 0.03379489 0.4973906
00000000: fb7f 2c3d 3058 e13e 8e54 47be 1261 0d3e
00000010: fc8d 313e 4ed6 0f3f 5274 1b3f 61f0 753c
00000020: 0929 7dbe a467 74be f298 5c3e 0ddf c4bd
00000030: e7ed 043d 6960 e23b 8601 6a3e 1b21 dc3a
00000040: 12c7 ff3e e1dd 3a3f b41e 0fbe 78e1 6ebe
00000050: f51f aa3b 5c29 cf3d cdcf 463e 94c3 923d
00000060: a3a4 aabd 4b86 02be 8fce 1abd ad9b b4bd
00000070: b499 79bd 7918 cabd 836c 0a3d fba9 fe3e

fc.2.weight f4 [1, 32]
0.041143857 0.6157239 0.0648747 -0.038280044 0.039204028 0.5643941 0.40691987 0.055071138
-0.035871647 -0.10865424 -0.11897197 0.10596676 0.0272755 -0.1434405 0.008751287 -0.031387854
0.6069944 0.5720937 0.08157647 0.05823192 -0.019233398 -0.12571172 -0.009307227 -0.09470486
-0.13419917 0.07216419 -0.03695288 0.15287566 -0.13643356 -0.015150865 -0.05455471 0.48532268
00000000: 7686 283d 15a0 1d3f 07dd 843d 89cb 1cbd
00000010: 6794 203d 227c 103f cd57 d03e 4692 613d
00000020: 26ee 12bd 1d86 debd 94a7 f3bd 1a05 d93d
00000030: df70 df3c 11e2 12be 8f61 0f3c 8d90 00bd
00000040: fc63 1b3f bc74 123f 9011 a73d 9884 6e3d
00000050: 5c8f 9dbc 93ba 00be 577d 18bc 9ff4 c1bd
00000060: 826b 09be d2ca 933d e75b 17bd 708b 1c3e
00000070: 3db5 0bbe 553b 78bc c274 5fbd 377c f83e
